Voice_Control/404_Demo_Final/tflite-model/tflite_learn_773390_16.tflite (tflite, 9496 bytes, 4 tensors)

sequential/y_pred/MatMul i1 [6, 208] scale=0.015194478 zero_point=0
000000 f8 d7 fc 1b f5 fb ff 1c 07 0b db e1 c6 f0 e9 10
       -0.12155583 -0.6229736 -0.060777914 0.41025093 -0.16713926 -0.07597239 -0.015194478 0.4254454 0.10636135 0.16713926 -0.5621957 -0.47102883 -0.88127977 -0.24311166 -0.349473 0.24311166
000010 f5 f3 f5 03 ed 97 f2 11 20 08 cc ec 04 05 f7 0b
       -0.16713926 -0.19752821 -0.16713926 0.045583434 -0.2886951 -1.5954202 -0.2127227 0.25830615 0.4862233 0.12155583 -0.79011285 -0.30388957 0.060777914 0.07597239 -0.13675031 0.16713926
000020 ea 09 f2 01 e7 18 f5 0d 0c 2d cb f3 10 fb f5 0a
       -0.33427852 0.13675031 -0.2127227 0.015194478 -0.37986195 0.36466748 -0.16713926 0.19752821 0.18233374 0.6837515 -0.8053073 -0.19752821 0.24311166 -0.07597239 -0.16713926 0.15194479
000030 f4 ef e4 dd e6 2b e7 18 24 16 d0 e4 10 fc fa 03
       -0.18233374 -0.25830615 -0.4254454 -0.53180677 -0.39505643 0.6533626 -0.37986195 0.36466748 0.54700124 0.33427852 -0.72933495 -0.4254454 0.24311166 -0.060777914 -0.09116687 0.045583434
000040 e0 f0 e7 e6 ea 1a f6 19 1c 1e e6 f5 09 04 ff ff
       -0.4862233 -0.24311166 -0.37986195 -0.39505643 -0.33427852 0.39505643 -0.15194479 0.37986195 0.4254454 0.45583436 -0.39505643 -0.16713926 0.13675031 0.060777914 -0.015194478 -0.015194478
000050 f0 fc ee ef ef 0e fb 1c 15 0a fd ed 1a 14 fa ff
       -0.24311166 -0.060777914 -0.27350062 -0.25830615 -0.25830615 0.2127227 -0.07597239 0.4254454 0.31908405 0.15194479 -0.045583434 -0.2886951 0.39505643 0.30388957 -0.09116687 -0.015194478
000060 eb fe f1 0c ef 21 fd 11 12 0c ee ea 17 08 fd f5
       -0.31908405 -0.030388957 -0.22791718 0.18233374 -0.25830615 0.5014178 -0.045583434 0.25830615 0.27350062 0.18233374 -0.27350062 -0.33427852 0.349473 0.12155583 -0.045583434 -0.16713926
000070 e6 fd f3 02 ff 1b f3 14 0c 11 df f5 12 fe 06 fd
       -0.39505643 -0.045583434 -0.19752821 0.030388957 -0.015194478 0.41025093 -0.19752821 0.30388957 0.18233374 0.25830615 -0.5014178 -0.16713926 0.27350062 -0.030388957 0.09116687 -0.045583434
000080 e6 f4 eb e2 fa 08 0b 1a 08 06 f6 fb 19 08 f6 fb
       -0.39505643 -0.18233374 -0.31908405 -0.45583436 -0.09116687 0.12155583 0.16713926 0.39505643 0.12155583 0.09116687 -0.15194479 -0.07597239 0.37986195 0.12155583 -0.15194479 -0.07597239
000090 f4 0d df f7 06 1b 05 14 07 0a e9 fc 0a fa 01 02
       -0.18233374 0.19752821 -0.5014178 -0.13675031 0.09116687 0.41025093 0.07597239 0.30388957 0.10636135 0.15194479 -0.349473 -0.060777914 0.15194479 -0.09116687 0.015194478 0.030388957
0000a0 ec 00 f8 e6 02 15 f8 08 09 03 e7 04 18 fd 05 14
       -0.30388957 0.0 -0.12155583 -0.39505643 0.030388957 0.31908405 -0.12155583 0.12155583 0.13675031 0.045583434 -0.37986195 0.060777914 0.36466748 -0.045583434 0.07597239 0.30388957
0000b0 01 07 01 13 03 16 ff fd 0f 0f f2 e5 05 fd 05 16
       0.015194478 0.10636135 0.015194478 0.2886951 0.045583434 0.33427852 -0.015194478 -0.045583434 0.22791718 0.22791718 -0.2127227 -0.41025093 0.07597239 -0.045583434 0.07597239 0.33427852
0000c0 f3 37 fc f5 07 05 19 07 f9 08 03 fc 0f 11 fb 20
       -0.19752821 0.83569634 -0.060777914 -0.16713926 0.10636135 0.07597239 0.37986195 0.10636135 -0.10636135 0.12155583 0.045583434 -0.060777914 0.22791718 0.25830615 -0.07597239 0.4862233
0000d0 f9 bd 05 1f 31 f0 d7 ad 11 1f 25 03 07 f1 fb 1d
       -0.10636135 -1.01803 0.07597239 0.47102883 0.7445294 -0.24311166 -0.6229736 -1.2611417 0.25830615 0.47102883 0.5621957 0.045583434 0.10636135 -0.22791718 -0.07597239 0.44063988
0000e0 08 ed f7 fa 19 02 f9 a8 e3 ed 1d 03 0f 00 f7 16
       0.12155583 -0.2886951 -0.13675031 -0.09116687 0.37986195 0.030388957 -0.10636135 -1.3371141 -0.44063988 -0.2886951 0.44063988 0.045583434 0.22791718 0.0 -0.13675031 0.33427852
0000f0 fb c6 d9 f7 17 ef fd c5 09 9f 0f 10 14 e4 0c 18
       -0.07597239 -0.88127977 -0.59258467 -0.13675031 0.349473 -0.25830615 -0.045583434 -0.89647424 0.13675031 -1.4738644 0.22791718 0.24311166 0.30388957 -0.4254454 0.18233374 0.36466748

sequential/conv1d_2/Conv1D i1 [16, 1, 1, 16] scale=0.012877638 zero_point=0
000000 dd 0c f1 b0 10 fc 09 fb ee 90 fa 0c ee ca d4 dc
       -0.45071736 0.15453166 -0.19316457 -1.0302111 0.20604222 -0.051510554 0.11589874 -0.06438819 -0.23179749 -1.4422956 -0.07726583 0.15453166 -0.23179749 -0.6953925 -0.5666161 -0.46359497
000010 b1 db d9 d3 f2 d2 f6 f0 e0 02 e8 b9 f8 df fb 05
       -1.0173334 -0.47647262 -0.5022279 -0.5794937 -0.18028694 -0.59237134 -0.12877639 -0.20604222 -0.41208443 0.025755277 -0.30906332 -0.9143123 -0.10302111 -0.42496207 -0.06438819 0.06438819
000020 cd 12 d2 e9 f7 fc ea e3 f5 f0 f2 f9 f2 d0 07 b5
       -0.65675956 0.23179749 -0.59237134 -0.29618567 -0.11589874 -0.051510554 -0.28330806 -0.3734515 -0.14165403 -0.20604222 -0.18028694 -0.09014347 -0.18028694 -0.61812663 0.09014347 -0.9658229
000030 e0 e9 c2 c9 d6 f7 f5 02 f7 dd d9 e0 02 00 d2 d0
       -0.41208443 -0.29618567 -0.7984136 -0.70827013 -0.54086083 -0.11589874 -0.14165403 0.025755277 -0.11589874 -0.45071736 -0.5022279 -0.41208443 0.025755277 0.0 -0.59237134 -0.61812663
000040 fc f7 12 ee eb f4 fd f4 fa 05 e5 fd de 0c f3 fc
       -0.051510554 -0.11589874 0.23179749 -0.23179749 -0.27043042 -0.15453166 -0.038632914 -0.15453166 -0.07726583 0.06438819 -0.34769624 -0.038632914 -0.43783972 0.15453166 -0.1674093 -0.051510554
000050 da f5 d9 e3 d3 cd ff 1a ff ec fb f3 f2 e1 03 03
       -0.48935026 -0.14165403 -0.5022279 -0.3734515 -0.5794937 -0.65675956 -0.012877638 0.3348186 -0.012877638 -0.25755277 -0.06438819 -0.1674093 -0.18028694 -0.3992068 0.038632914 0.038632914
000060 06 f6 ee 10 f4 de f5 f6 fa fd f7 f2 11 0a f5 ff
       0.07726583 -0.12877639 -0.23179749 0.20604222 -0.15453166 -0.43783972 -0.14165403 -0.12877639 -0.07726583 -0.038632914 -0.11589874 -0.18028694 0.21891986 0.12877639 -0.14165403 -0.012877638
000070 0c cc f4 f6 d7 fc e8 0f f9 00 05 10 f4 fe fa fe
       0.15453166 -0.6696372 -0.15453166 -0.12877639 -0.5279832 -0.051510554 -0.30906332 0.19316457 -0.09014347 0.0 0.06438819 0.20604222 -0.15453166 -0.025755277 -0.07726583 -0.025755277
000080 fe c7 d9 eb d1 8b 00 ba e7 f8 0b 00 f6 f0 02 fd
       -0.025755277 -0.7340254 -0.5022279 -0.27043042 -0.605249 -1.5066837 0.0 -0.9014347 -0.32194096 -0.10302111 0.14165403 0.0 -0.12877639 -0.20604222 0.025755277 -0.038632914
000090 98 f0 f1 df c6 e9 f5 00 fb fb fa b4 ec f8 10 00
       -1.3392744 -0.20604222 -0.19316457 -0.42496207 -0.746903 -0.29618567 -0.14165403 0.0 -0.06438819 -0.06438819 -0.07726583 -0.9787005 -0.25755277 -0.10302111 0.20604222 0.0
0000a0 95 fd 9a ad a4 ed d6 ff fe d0 01 81 b1 a6 ef c8
       -1.3779073 -0.038632914 -1.3135191 -1.068844 -1.1847427 -0.24467513 -0.54086083 -0.012877638 -0.025755277 -0.61812663 0.012877638 -1.6354601 -1.0173334 -1.1589874 -0.21891986 -0.7211478
0000b0 ee ee fe fa e9 dc 19 f9 af fe fb f6 f5 fd 01 fe
       -0.23179749 -0.23179749 -0.025755277 -0.07726583 -0.29618567 -0.46359497 0.32194096 -0.09014347 -1.0430887 -0.025755277 -0.06438819 -0.12877639 -0.14165403 -0.038632914 0.012877638 -0.025755277
0000c0 fd e4 0c 09 df dd fd 12 f7 03 ed dd f9 fa f8 15
       -0.038632914 -0.3605739 0.15453166 0.11589874 -0.42496207 -0.45071736 -0.038632914 0.23179749 -0.11589874 0.038632914 -0.24467513 -0.45071736 -0.09014347 -0.07726583 -0.10302111 0.27043042
0000d0 fb 08 e6 05 fe f8 f6 0e f7 ff 0b f8 15 d6 e1 fd
       -0.06438819 0.10302111 -0.3348186 0.06438819 -0.025755277 -0.10302111 -0.12877639 0.18028694 -0.11589874 -0.012877638 0.14165403 -0.10302111 0.27043042 -0.54086083 -0.3992068 -0.038632914
0000e0 ff 00 f4 0f 01 f4 fe f5 12 19 02 f3 ac f9 fe fa
       -0.012877638 0.0 -0.15453166 0.19316457 0.012877638 -0.15453166 -0.025755277 -0.14165403 0.23179749 0.32194096 0.025755277 -0.1674093 -1.0817217 -0.09014347 -0.025755277 -0.07726583
0000f0 e9 fe f3 e8 04 08 ec d2 ec c3 d8 fb fa 03 fb e4
       -0.29618567 -0.025755277 -0.1674093 -0.30906332 0.051510554 0.10302111 -0.25755277 -0.59237134 -0.25755277 -0.78553593 -0.51510555 -0.06438819 -0.07726583 0.038632914 -0.06438819 -0.3605739

sequential/conv1d_1/Conv1D i1 [16, 1, 5, 16] scale=0.028414316 zero_point=0
000000 d9 01 f7 f4 e6 ef f4 e0 ff d8 e4 03 06 f1 e3 d3
       -1.1081583 0.028414316 -0.25572884 -0.3409718 -0.7387722 -0.48304337 -0.3409718 -0.9092581 -0.028414316 -1.1365726 -0.7956009 0.08524295 0.1704859 -0.42621475 -0.8240152 -1.2786442
000010 e0 ff fb 0f 09 f0 00 04 0a da fd 07 01 09 e2 f5
       -0.9092581 -0.028414316 -0.14207157 0.42621475 0.25572884 -0.45462906 0.0 0.113657266 0.28414315 -1.079744 -0.08524295 0.19890022 0.028414316 0.25572884 -0.8524295 -0.3125575
000020 d8 ef e4 0b f4 dc 0e 0f 00 03 f3 03 f5 0e e5 07
       -1.1365726 -0.48304337 -0.7956009 0.3125575 -0.3409718 -1.0229154 0.39780045 0.42621475 0.0 0.08524295 -0.3693861 0.08524295 -0.3125575 0.39780045 -0.7671865 0.19890022
000030 df d9 e6 11 11 f9 0a 0a fd 01 e2 04 bc 0b fc 04
       -0.93767244 -1.1081583 -0.7387722 0.48304337 0.48304337 -0.19890022 0.28414315 0.28414315 -0.08524295 0.028414316 -0.8524295 0.113657266 -1.9321735 0.3125575 -0.113657266 0.113657266
000040 f2 cc ff 10 17 fe 09 07 f2 0f d9 f2 e1 17 0b 08
       -0.39780045 -1.4775444 -0.028414316 0.45462906 0.6535293 -0.056828633 0.25572884 0.19890022 -0.39780045 0.42621475 -1.1081583 -0.39780045 -0.8808438 0.6535293 0.3125575 0.22731453
000050 02 01 f7 0c 14 04 04 fa 00 0d 02 e6 fd fb 09 2e
       0.056828633 0.028414316 -0.25572884 0.3409718 0.5682863 0.113657266 0.113657266 -0.1704859 0.0 0.3693861 0.056828633 -0.7387722 -0.08524295 -0.14207157 0.25572884 1.3070586
000060 02 0a fb e4 ff fb 07 d7 f2 06 05 f7 04 f4 04 f2
       0.056828633 0.28414315 -0.14207157 -0.7956009 -0.028414316 -0.14207157 0.19890022 -1.164987 -0.39780045 0.1704859 0.14207157 -0.25572884 0.113657266 -0.3409718 0.113657266 -0.39780045
000070 00 00 e9 bd 03 fb f1 c5 ee fd 01 df ff 07 01 fa
       0.0 0.0 -0.6535293 -1.9037592 0.08524295 -0.14207157 -0.42621475 -1.6764446 -0.5114577 -0.08524295 0.028414316 -0.93767244 -0.028414316 0.19890022 0.028414316 -0.1704859
000080 f6 02 e5 df fc dd f4 b8 e8 fa 0e bc 00 0e 08 eb
       -0.28414315 0.056828633 -0.7671865 -0.93767244 -0.113657266 -0.99450105 -0.3409718 -2.0458307 -0.6819436 -0.1704859 0.39780045 -1.9321735 0.0 0.39780045 0.22731453 -0.59670067
000090 0a 03 fd e5 03 fd fd d8 dd e7 0f bd fd 19 06 ea
       0.28414315 0.08524295 -0.08524295 -0.7671865 0.08524295 -0.08524295 -0.08524295 -1.1365726 -0.99450105 -0.7103579 0.42621475 -1.9037592 -0.08524295 0.7103579 0.1704859 -0.625115
0000a0 cd 0e f5 ff ed b5 e9 ec 2d ef e2 f1 12 fc ff 04
       -1.4491302 0.39780045 -0.3125575 -0.028414316 -0.539872 -2.1310737 -0.6535293 -0.5682863 1.2786442 -0.48304337 -0.8524295 -0.42621475 0.5114577 -0.113657266 -0.028414316 0.113657266
0000b0 e1 07 d6 02 08 dd fd f5 ea f7 f8 cf 00 0a ff fb
       -0.8808438 0.19890022 -1.1934013 0.056828633 0.22731453 -0.99450105 -0.08524295 -0.3125575 -0.625115 -0.25572884 -0.22731453 -1.3923016 0.0 0.28414315 -0.028414316 -0.14207157
0000c0 e9 03 e2 ff fb fe e5 fa 10 f4 f6 c7 0c fe fa 11
       -0.6535293 0.08524295 -0.8524295 -0.028414316 -0.14207157 -0.056828633 -0.7671865 -0.1704859 0.45462906 -0.3409718 -0.28414315 -1.619616 0.3409718 -0.056828633 -0.1704859 0.48304337
0000d0 fd eb e2 fd d3 f6 d2 06 06 f0 f6 ce 05 ec f0 08
       -0.08524295 -0.59670067 -0.8524295 -0.08524295 -1.2786442 -0.28414315 -1.3070586 0.1704859 0.1704859 -0.45462906 -0.28414315 -1.4207158 0.14207157 -0.5682863 -0.45462906 0.22731453
0000e0 e9 f8 df fd e0 f5 fa fc 12 f0 f9 e8 ee f0 f3 0a
       -0.6535293 -0.22731453 -0.93767244 -0.08524295 -0.9092581 -0.3125575 -0.1704859 -0.113657266 0.5114577 -0.45462906 -0.19890022 -0.6819436 -0.5114577 -0.45462906 -0.3693861 0.28414315
0000f0 bb f6 e9 f2 f5 df 11 0c 0d 10 ea ff fb d8 ff eb
       -1.9605879 -0.28414315 -0.6535293 -0.39780045 -0.3125575 -0.93767244 0.48304337 0.3409718 0.3693861 0.45462906 -0.625115 -0.028414316 -0.14207157 -1.1365726 -0.028414316 -0.59670067

sequential/conv1d/Conv1D i1 [16, 1, 5, 13] scale=0.022680376 zero_point=0
000000 5c 04 06 0a fa f4 f6 0e 04 ff 03 f2 09 39 ec 03
       2.0865946 0.0907215 0.13608226 0.22680375 -0.13608226 -0.27216452 -0.22680375 0.31752527 0.0907215 -0.022680376 0.06804113 -0.31752527 0.20412338 1.2927815 -0.4536075 0.06804113
000010 f7 08 14 04 ed f6 03 f8 ff fd e3 2a fb fa ff fe
       -0.20412338 0.181443 0.4536075 0.0907215 -0.43092713 -0.22680375 0.06804113 -0.181443 -0.022680376 -0.06804113 -0.6577309 0.9525758 -0.113401875 -0.13608226 -0.022680376 -0.04536075
000020 fc 06 06 01 11 f9 00 81 34 2b 1d 04 08 05 fe fa
       -0.0907215 0.13608226 0.13608226 0.022680376 0.38556638 -0.15876263 0.0 -2.8804078 1.1793796 0.97525615 0.6577309 0.0907215 0.181443 0.113401875 -0.04536075 -0.13608226
000030 fe 00 06 f9 fa c2 e8 f3 fb 0a 09 07 02 fb 00 0f
       -0.04536075 0.0 0.13608226 -0.15876263 -0.13608226 -1.4061832 -0.54432905 -0.2948449 -0.113401875 0.22680375 0.20412338 0.15876263 0.04536075 -0.113401875 0.0 0.34020564
000040 04 df e6 01 07 ff 12 ec 0c 02 f1 f7 11 fb e8 de
       0.0907215 -0.7484524 -0.5896898 0.022680376 0.15876263 -0.022680376 0.40824676 -0.4536075 0.27216452 0.04536075 -0.34020564 -0.20412338 0.38556638 -0.113401875 -0.54432905 -0.77113277
000050 0f 08 f7 0c 01 00 05 06 f6 ef 0a ec d1 ff 00 0c
       0.34020564 0.181443 -0.20412338 0.27216452 0.022680376 0.0 0.113401875 0.13608226 -0.22680375 -0.38556638 0.22680375 -0.4536075 -1.0659777 -0.022680376 0.0 0.27216452
000060 0f 01 02 04 ff fe 05 0c df d6 fe 1d 0e fa ff fd
       0.34020564 0.022680376 0.04536075 0.0907215 -0.022680376 -0.04536075 0.113401875 0.27216452 -0.7484524 -0.9525758 -0.04536075 0.6577309 0.31752527 -0.13608226 -0.022680376 -0.06804113
000070 08 05 03 14 f7 fb d6 0d f5 15 0a f6 f4 01 0a ff
       0.181443 0.113401875 0.06804113 0.4536075 -0.20412338 -0.113401875 -0.9525758 0.2948449 -0.24948414 0.4762879 0.22680375 -0.22680375 -0.27216452 0.022680376 0.22680375 -0.022680376
000080 02 14 2c f4 eb f3 ea 12 05 0c f0 f8 ff f9 ee de
       0.04536075 0.4536075 0.99793655 -0.27216452 -0.4762879 -0.2948449 -0.49896827 0.40824676 0.113401875 0.27216452 -0.362886 -0.181443 -0.022680376 -0.15876263 -0.40824676 -0.77113277
000090 0f 0b 0d 0c f0 e4 ea 12 17 14 02 03 00 21 fc 1b
       0.34020564 0.24948414 0.2948449 0.27216452 -0.362886 -0.63505054 -0.49896827 0.40824676 0.52164865 0.4536075 0.04536075 0.06804113 0.0 0.7484524 -0.0907215 0.61237013
0000a0 13 ef f5 f4 18 14 02 0c 16 ce ec fc 16 fa fb f8
       0.43092713 -0.38556638 -0.24948414 -0.27216452 0.54432905 0.4536075 0.04536075 0.27216452 0.49896827 -1.1340188 -0.4536075 -0.0907215 0.49896827 -0.13608226 -0.113401875 -0.181443
0000b0 10 fe fa 0a f0 ea be 0f fc 15 0c 0c f7 01 01 f9
       0.362886 -0.04536075 -0.13608226 0.22680375 -0.362886 -0.49896827 -1.4969049 0.34020564 -0.0907215 0.4762879 0.27216452 0.27216452 -0.20412338 0.022680376 0.022680376 -0.15876263
0000c0 03 04 07 0b 1c 0a 35 fc e6 de ec fd 0b f8 10 04
       0.06804113 0.0907215 0.15876263 0.24948414 0.63505054 0.22680375 1.2020599 -0.0907215 -0.5896898 -0.77113277 -0.4536075 -0.06804113 0.24948414 -0.181443 0.362886 0.0907215
0000d0 01 0c 2e 18 06 00 ef f3 e0 dd 02 02 fe 00 06 07
       0.022680376 0.27216452 1.0432973 0.54432905 0.13608226 0.0 -0.38556638 -0.2948449 -0.725772 -0.79381317 0.04536075 0.04536075 -0.04536075 0.0 0.13608226 0.15876263
0000e0 21 f5 00 00 ff f1 03 01 00 f8 03 14 ee ff fc ee
       0.7484524 -0.24948414 0.0 0.0 -0.022680376 -0.34020564 0.06804113 0.022680376 0.0 -0.181443 0.06804113 0.4536075 -0.40824676 -0.022680376 -0.0907215 -0.40824676
0000f0 0d 00 07 04 09 07 fa e7 05 e2 0f fe fb ec 18 14
       0.2948449 0.0 0.15876263 0.0907215 0.20412338 0.15876263 -0.13608226 -0.5670094 0.113401875 -0.6804113 0.34020564 -0.04536075 -0.113401875 -0.4536075 0.54432905 0.4536075
